…
       -273.30926605, -273.30926605])
resampledData.shape
(1024,)
resampledData.shape
(1024,)


x = Conv2D(512, (32, 32), activation='relu', padding='same',name='block2_conv1')(x)
x = Dropout(0.35)(x)
x=Flatten()(x)
x=Dense(128,activation='relu')(x) 
x=Dense(num_classes,activation='softmax')(x)
model = Model(img_input, x, name='NgTest_CNN')
#return mode
print(model.summary())
_________________________________________________________________
Layer (type)                 Output Shape              Param #   
=================================================================
input_1 (InputLayer)         (None, 32, 32, 1)         0         
_________________________________________________________________
block1_conv1 (Conv2D)        (None, 32, 32, 1024)      1049600   
_________________________________________________________________
block2_conv1 (Conv2D)        (None, 32, 32, 512)       536871424 
_________________________________________________________________
dropout_1 (Dropout)          (None, 32, 32, 512)       0         
_________________________________________________________________
flatten_1 (Flatten)          (None, 524288)            0         
_________________________________________________________________
dense_1 (Dense)              (None, 128)               67108992  
_________________________________________________________________
dense_2 (Dense)              (None, 1)                 129       
=================================================================
Total params: 605,030,145
Trainable params: 605,030,145
Non-trainable params: 0
_________________________________________________________________
None


num_classes=10
